Hung-yi Lee/Regression/weight.npy (npy, 1432 bytes, 1 tensors)

array f8 [163, 1]
000000 55 d7 f9 39 c0 5f 35 40 8a 26 0a 7c 0b b6 0c 40
       21.374026893135426 3.5888890925023746
000010 51 9a 23 5d 65 41 12 40 fc 96 5e c4 f7 4d 01 40
       4.563863234804175 2.1630702344290267
000020 c4 e4 d0 c9 80 57 1a c0 c6 39 71 44 bc f1 40 c0
       -6.585452226042609 -33.888557963644004
000030 b7 70 b7 58 9d 1c 40 40 50 13 d0 8d 7d f2 0b 40
       32.22355183560415 3.493403537666758
000040 d1 92 2b 90 8f 69 12 c0 82 b3 ce 19 45 61 f0 bf
       -4.603086712512508 -1.0237475402929879
000050 fb 05 d1 2d 08 65 d9 bf aa 5f 1e 06 60 5e bb bf
       -0.39679150079982123 -0.10690879964238201
000060 51 71 97 28 7e 7a cc 3f 1b 34 22 97 d7 07 b7 3f
       0.22248818380365745 0.08996341171059934
000070 ba 78 59 f5 92 cc c0 3f 5a 71 ff be 8e 1b 96 3f
       0.13124310474353768 0.02158949890859794
000080 37 c9 1c 8c 27 91 c3 bf be f1 80 bd d1 3f a7 3f
       -0.15286726323535912 0.045408777601980685
000090 c2 51 4e 96 06 ac e0 3f 0c f3 1b 48 e3 95 c4 3f
       0.52099923473957 0.16082421322780538
0000a0 db 22 61 04 48 44 a0 bf e5 ae 3d 60 9f 52 8a 3f
       -0.03177094510517061 0.012852902531185826
0000b0 b0 24 2e b8 ac a2 c6 bf fe 03 91 bb 3c eb c5 3f
       -0.1768394374196638 0.1712413707591906
0000c0 3c 97 e9 c0 d5 ca c0 bf 45 7e d0 51 ae 00 a2 bf
       -0.1311900321917906 -0.035161445128548276
0000d0 ef ff ce cd be cf b9 3f 2c f4 73 74 c7 14 d6 3f
       0.10082619213699194 0.3450182568774973
0000e0 06 ce 98 8b 96 7c a4 3f e8 a7 06 03 25 0b 9a 3f
       0.04001303152145046 0.025433138189022403
0000f0 e1 1b 7d 5b 40 24 e0 bf d5 6e 58 b5 60 c6 d7 3f
       -0.5044252192391206 0.3714830180121969
000100 a5 46 ee ae 5c 15 eb 3f ec b9 da 8c 40 fb e9 bf
       0.8463576714149964 -0.8119204283773889
000110 14 ff 63 4f 4e 7c b4 bf 4a 9d 1a c9 e8 8c c3 3f
       -0.08002175749060952 0.15273771113900586
000120 8b 60 74 96 5e f4 d0 3f 5a fe 17 19 ea 9d aa bf
       0.26491512959319924 -0.051986041606139025
000130 c2 ee 3c 99 93 20 d0 bf c3 51 8c 01 e1 a7 d8 3f
       -0.2519883152451535 0.38524651671584936
000140 b9 d5 e3 96 db 2c c5 3f 8b 0b 62 89 9e 0f b4 bf
       0.1654314505355339 -0.07836333135678168
000150 3e fe 5c 9f 77 86 d2 bf 8b da 55 cd 16 bc c6 3f
       -0.2894572311670095 0.17761502290860096
000160 77 e8 21 2f f4 a3 d4 3f 9c 77 d6 2b e8 6f dd bf
       0.3225069484975686 -0.4599552562811995
000170 cc cf f3 23 a2 d9 a1 bf 53 6e 38 4c d0 9d e2 bf
       -0.03486353577491705 -0.5817643631630268
000180 90 5d b3 e5 8c 78 b0 bf 27 f2 de 28 87 40 e4 bf
       -0.0643394528191179 -0.6328769491443084
000190 84 cb e8 af 2e 4c b0 3f f6 df bb b5 ec 49 b5 3f
       0.06366245073949811 0.08315925061094717
0001a0 cd 71 cd d0 77 7d dc bf 0b 42 fd bf f5 04 ce bf
       -0.44515796080466147 -0.2345263659904194
0001b0 96 22 67 2f 4c 92 ef 3f ce 04 c5 fb 89 f9 d0 3f
       0.9866085935437521 0.26523065173030325
0001c0 08 93 f4 47 ec 04 a2 3f 32 c1 34 e3 7e ad d3 3f
       0.03519380930291588 0.3074643343743616
0001d0 35 b3 20 2f 24 b4 ba bf b1 41 e3 54 61 9e b0 bf
       -0.10431123877124267 -0.06491669008688096
0001e0 08 44 ea ae 69 09 cb 3f 88 4c 8b 5d dc 1f cf bf
       0.21122475662971874 -0.2431598145254592
0001f0 1f a5 c8 76 f7 cd c0 bf 5d b1 a9 32 84 72 f1 3f
       -0.13128560352314708 1.0904581049936362
000200 a6 eb e9 d9 88 5f a4 bf 65 74 3d ce 10 6d ed 3f
       -0.03979137096481304 0.9195636776090735
000210 9e 2f e4 da ff 3b ee bf 46 0a 72 75 e5 21 e0 bf
       -0.944824149629756 -0.5041377347809621
000220 cd a9 57 e8 fc cc e5 3f 5d 18 19 7e e8 84 f5 bf
       0.6812729394853761 -1.3449482846931666
000230 c5 d8 b3 7e 11 27 d1 bf ca a1 09 e5 6a 55 a6 3f
       -0.2680095422105178 0.043620434244818165
000240 21 c6 ad b4 d0 56 fe 3f 17 20 1f f4 42 e1 d5 bf
       1.8961951310888099 -0.3418738731384123
000250 9d 81 51 bc 79 36 c8 3f bc 6e d7 93 ad bd 91 3f
       0.18916246123536676 0.017325126789599507
000260 d3 dc ea 19 a7 1f d4 3f cf 1c 48 34 22 d0 d5 bf
       0.31443192988394947 -0.3408284674228072
000270 68 4d 1d 1b 3f 83 df 3f d7 ab 74 66 73 cc b7 3f
       0.4923856510915443 0.0929634213577367
000280 0a 47 34 45 ea dc dc bf ed ad c5 5a d2 97 f7 3f
       -0.45098358877395184 1.474565844134186
000290 8a ec 06 9b e6 11 9f bf 77 36 3d 1a 54 be b3 3f
       -0.030341723644351982 0.07712293282130554
0002a0 40 f7 a3 84 12 6d e4 3f 0c 0c a8 99 9b 62 e9 bf
       0.6383144941935157 -0.7932870865919326
0002b0 95 a9 bc 53 88 40 ec 3f 8d 27 93 6a 6a 84 09 40
       0.8828775058257629 3.189656097999381
0002c0 a6 ec 52 d6 e0 06 17 c0 f7 f4 77 da 46 b8 f9 3f
       -5.756717060862831 1.607489446061036
0002d0 53 3d 1c 2f 7e 3a 2b 40 1c 0f 33 66 27 34 c3 3f
       13.614243957707606 0.1500291108151196
0002e0 f5 c8 f9 23 59 7e a8 bf bc c6 f5 ef 40 1d b0 bf
       -0.04783896030575533 -0.0629463754501342
0002f0 83 96 74 1c 25 39 9d bf ed 31 fc 24 ce 4c d3 bf
       -0.02853830324342833 -0.30156282054738776
000300 a9 a4 ef 91 28 5f da 3f b4 32 7f af 49 58 b1 bf
       0.4120580125005043 -0.0677534154376172
000310 41 49 c5 32 2f da b9 bf 01 35 8a 08 e8 a0 c5 bf
       -0.10098547925489233 -0.16897297303186323
000320 a7 5f 4b 42 42 41 fa 3f 65 fb aa fd e5 58 fe 3f
       1.6409323300958734 1.8967037114050183
000330 66 48 a7 bc fd 42 d9 3f 75 03 74 f8 68 d9 12 c0
       0.394713815910228 -4.712314493256476
000340 bd 53 e5 cd de b5 1d c0 1b cb 63 28 91 ca 18 40
       -7.427607743379608 6.197819357958703
000350 f5 bc 93 66 a3 51 0c 40 64 a5 8d eb 90 99 ee bf
       3.5398624433361143 -0.956245861115502
000360 02 63 d0 0b 1c b3 f0 bf 90 7b 89 3e 14 8b df bf
       -1.043727918766479 -0.4928637133324907
000370 4a 9c 45 a3 23 36 e4 3f 79 75 47 74 1f 0d df bf
       0.6316087902931795 -0.4851759563005867
000380 10 81 7e 0f a1 89 d0 3f 6e 7b a6 27 98 29 b8 3f
       0.2584002162275434 0.09438467948937809
000390 a8 b8 99 7e a9 8d c0 bf d2 da ef af 28 66 d8 bf
       -0.12932318383849872 -0.3812352865347012
0003a0 e7 b6 40 7d a6 c1 d8 3f c9 ab c7 71 9a de d9 3f
       0.38681947929113253 0.40421162711453157
0003b0 53 92 2e 33 52 09 d8 3f fb d4 6a 6c 54 7d c7 3f
       0.37556891439661405 0.1835122613316925
0003c0 23 58 aa cc 2b 84 b4 bf 75 bb 06 46 21 da d3 bf
       -0.08014177080835387 -0.31018859709268237
0003d0 bf 36 ff 0a 1b 5a d9 bf 5e 5d 07 f3 46 70 d7 3f
       -0.3961246116058241 0.3662278531387154
0003e0 b5 e6 dd 72 7b f9 c6 3f 44 77 73 5a 64 20 d4 bf
       0.17948859318476243 -0.3144770510970043
0003f0 1a 08 83 3f 0d 6a ce bf 63 9b 0d 50 8e 54 a4 3f
       -0.23761144257702044 0.03970761038981754
000400 a2 99 b5 b9 68 c3 c1 3f 66 74 16 c0 5c a9 a3 bf
       0.13877591197815514 -0.038401506851393916
000410 06 2a 82 cf f0 08 ac bf 77 09 38 b1 df e0 da 3f
       -0.05475571187078647 0.41997520739109667
000420 52 11 fc c7 3d 8d dc 3f e0 be 3b de ba 96 db bf
       0.44612068681478434 -0.4310748262641777
000430 02 d4 f7 f0 cc 62 b6 bf a6 e8 c5 df ff 28 ad bf
       -0.08744507678041205 -0.056953426424074124
000440 25 4c ed 25 ad 88 b2 bf 52 eb b4 4c bf a5 8c bf
       -0.07239801574660072 -0.013988012817767324
000450 4c f6 4a ac 90 fb c1 3f 41 9b 60 1b 99 5a cf bf
       0.140489658477167 -0.24495233380113215
000460 e7 06 d0 c3 bc 81 c7 3f 2e b3 99 77 64 02 c5 bf
       0.1836467701069104 -0.1641355117784768
000470 ae 31 d9 d9 a2 f9 b2 bf 21 f5 73 9b 42 de b8 bf
       -0.07412164515080263 -0.0971414212726427
000480 53 20 21 1c 2f 5c 94 3f de 36 82 f1 16 9b dc bf
       0.019882904140360157 -0.44696591934994767
000490 e3 d6 6c 77 37 dc d0 bf ca 4d dc d9 03 93 c3 3f
       -0.2634409586201924 0.1529240430614734
0004a0 f7 93 a3 73 70 b4 b0 3f 54 ed 37 57 41 9e e6 3f
       0.06525328467576218 0.7068182662473341
0004b0 42 b4 f5 3c 9d ed b8 3f 6a ef 36 a1 e8 7b d5 bf
       0.09737570513034746 -0.3356877874718892
0004c0 3c a9 15 06 e4 ff cc bf 7d d6 29 4b 1e 35 d3 bf
       -0.22655916497326156 -0.30011708584002134
0004d0 99 05 c7 71 9a ca bf 3f a8 d2 27 f2 cd ce da 3f
       0.12418523099679248 0.41887234352115366
0004e0 f9 35 74 65 ff 1e d0 bf ce ea 64 7b 35 86 c0 bf
       -0.2518919459115235 -0.12909573102100186
0004f0 34 67 f0 64 24 d7 e1 bf bc af ce 12 86 6e b6 3f
       -0.5575124713388733 0.08762395819820673
000500 f9 44 a0 01 b7 5d d3 3f 9f 12 53 39 05 1a db bf
       0.30259490164560493 -0.4234631595429991
000510 14 8d c8 04 e2 5a df 3f
       0.48992205111626785
